…
_fancy_lora.yaml\n```\n\n----------------------------------------\n\nTITLE: Inspecting LoRA Model Architecture\nDESCRIPTION: Shell commands demonstrating how to inspect and compare the architecture of standard and LoRA-enabled Llama2 models, showing the additional LoRA parameters in attention layers.\nSOURCE: https://github.com/akariasai/openscholar/blob/main/training/docs/source/tutorials/lora_finetune.rst#2025-04-21_snippet_2\n\nLANGUAGE: bash\nCODE:\n```\n# Print the first layer's self-attention in the usual Llama2 model\n>>> print(base_model.layers[0].attn)\nCausalSelfAttention(\n  (q_proj): Linear(in_features=4096, out_features=4096, bias=False)\n  (k_proj): Linear(in_features=4096, out_features=4096, bias=False)\n  (v_proj): Linear(in_features=4096, out_features=4096, bias=False)\n  (output_proj): Linear(in_features=4096, out_features=4096, bias=False)\n  (pos_embeddings): RotaryPositionalEmbeddings()\n)\n\n# Print the same for Llama2 with LoRA weights\n>>> print(lora_model.layers[0].attn)\nCausalSelfAttention(\n  (q_proj): LoRALinear(\n    (dropout): Dropout(p=0.0, inplace=False)\n    (lora_a): Linear(in_features=4096, out_features=8, bias=False)\n    (lora_b): Linear(in_features=8, out_features=4096, bias=False)\n  )\n  (k_proj): Linear(in_features=4096, out_features=4096, bias=False)\n  (v_proj): LoRALinear(\n    (dropout): Dropout(p=0.0, inplace=False)\n    (lora_a): Linear(in_features=4096, out_features=8, bias=False)\n    (lora_b): Linear(in_features=8, out_features=4096, bias=False)\n  )\n  (output_proj): Linear(in_features=4096, out_features=4096, bias=False)\n  (pos_embeddings): RotaryPositionalEmbeddings()\n)\n```\n\n----------------------------------------\n\nTITLE: Installing Dependencies for FSDP2 Recipes in Python\nDESCRIPTION: This code snippet demonstrates how to install the required dependencies for running FSDP2 recipes. It first installs torchtune and then upgrades to the nightly build of PyTo
…
